plkg_ml/model_reserved/cnn_basic/model_final.pth (torch, 32378 bytes, 19 tensors)

weight f4 [4, 1, 2, 3]
0.28148055 0.0079312995 0.075404 -0.36582357 -0.5200926 -0.3413591 0.0011880479 -0.10012022
0.14187598 0.38147578 0.2446793 0.27177602 0.17557868 -0.00092483504 -0.246296 -0.001965876
0.4245913 0.31487238 0.27072498 0.03429594 -0.43567947 -0.38110083 -0.041478567 -0.28465328
00000000: 381e 903e 48f2 013c 6a6d 9a3d 3a4d bbbe
00000010: ca24 05bf 9fc6 aebe 46b8 9b3a d40b cdbd
00000020: f047 113e cb50 c33e 368d 7a3e 3a26 8b3e
00000030: e6ca 333e a170 72ba 0535 7cbe edd5 00bb
00000040: 0864 d93e f436 a13e 779c 8a3e e679 0c3d
00000050: 6111 dfbe a61f c3be 6ee5 29bd 13be 91be

bias f4 [4]
0.1892874 -0.14017317 0.103799246 0.6295691
00000000: 8ed4 413e 8e89 0fbe b394 d43d 712b 213f

weight f4 [4, 1, 51]
0.9734462 0.7835289 0.63046557 0.6671954 1.2881312 1.4428777 0.6503316 1.2330867
1.3826163 1.1244013 1.4431899 1.020231 0.76563483 0.9900472 0.8025181 0.8576978
0.927947 0.75293225 1.0085819 0.898212 1.0142927 1.380053 1.0998218 1.5229315
1.0072011 0.71996325 0.77358496 1.6228211 0.983796 1.220948 1.2607261 0.8861444
1.107772 1.2313071 1.2111074 0.80979943 0.7089007 0.91527694 1.112913 1.0523641
1.0050769 1.4217066 1.4638315 1.1248355 0.79284954 0.771915 0.6293319 0.6320311
1.0137329 0.67938113 2.1144314 0.8818982 0.6264367 0.55737627 0.53720987 1.1723522
0.5398544 1.2978828 0.95374566 0.7559992 0.6632057 0.6490728 1.4070255 0.5389572
0.885311 0.6191804 0.8251042 1.5535883 0.84695375 1.2518924 0.68911844 0.7989045
0.88020545 0.807908 0.39494658 1.1675851 0.51084036 2.1823957 0.371695 1.3762711
0.5086191 0.80830514 2.0029774 2.1005785 0.41452745 1.203521 0.8434626 1.7137328
2.107404 0.7528514 0.7444388 0.9567391 2.170003 2.1990407 0.60116416 1.0957066
1.3086338 0.27342576 1.0617533 0.6923195 0.5470307 0.51455635 1.0686195 0.94971305
1.0707502 1.1349696 1.0489737 1.042812 1.0046486 1.0752084 1.0538319 0.9028194
1.0578878 1.0004244 1.0019023 1.0810845 1.0068107 1.0017488 0.97954476 0.8686054
0.9455378 1.0308813 0.9239421 0.96905816 1.1957034 1.0472674 0.7817692 0.8384616
0.8392211 1.129237 1.0746993 1.0357755 1.070734 0.8661656 0.91505 1.1076577
0.9937253 1.0142093 0.99830353 0.9742218 1.1073396 1.1238103 0.86925775 1.0323836
0.8834362 1.0007088 0.9973349 1.0424936 1.0034939 0.9646722 0.92395437 1.113306
0.879186 1.1534466 1.2540524 0.8201338 0.6977681 1.1866298 0.9394603 1.2718179
0.8636538 1.0584267 1.2974031 0.8376283 0.8308785 1.3332666 0.88529587 0.96680593
0.72233176 1.3162336 1.450028 0.90615225 0.9225006 1.1233587 1.3576707 0.80596113
1.0554659 1.7014089 1.3920594 0.980622 0.83827955 1.0712098 1.0834743 0.90274394
1.2612078 1.1756481 0.89722145 1.3329539 1.1120905 1.0286691 1.1410105 1.0959382
0.95818913 1.0979953 1.0317197 1.1764734 0.92020655 1.1432942 0.7445833 0.98120576
1.1380367 1.2073697 0.81897104 1.1939458
00000000: c533 793f 5a95 483f 3166 213f 51cd 2a3f
00000010: 7ce1 a43f 37b0 b83f 227c 263f c9d5 9d3f
00000020: 92f9 b03f 62ec 8f3f 72ba b83f ee96 823f
00000030: a500 443f bc73 7d3f d471 4d3f 1592 5b3f
00000040: ef8d 6d3f 2bc0 403f 3619 813f 39f1 653f
00000050: 58d4 813f 94a5 b03f f6c6 8c3f 6bef c23f
00000060: f7eb 803f 834f 383f aa09 463f 9ab8 cf3f
00000070: 0eda 7b3f 0648 9c3f 795f a13f 5cda 623f
00000080: 79cb 8d3f 799b 9d3f 9105 9b3f 044f 4f3f
00000090: 847a 353f 974f 6a3f ef73 8e3f deb3 863f
000000a0: 5ca6 803f 7bfa b53f d55e bb3f 9cfa 8f3f
000000b0: 30f8 4a3f 399c 453f e51b 213f cacc 213f
000000c0: 00c2 813f eceb 2d3f d852 0740 15c4 613f
000000d0: 285e 203f 36b0 0e3f 9686 093f a30f 963f
000000e0: e633 0a3f 0621 a63f ad28 743f 2a89 413f
000000f0: d9c7 293f a329 263f 6919 b43f 19f9 093f
00000100: bea3 623f 9b82 1e3f 073a 533f fbdb c63f
00000110: f6d1 583f 033e a03f 116a 303f 0185 4c3f
00000120: 2555 613f 0fd3 4e3f 7036 ca3e 6e73 953f
00000130: 6fc6 023f 5fac 0b40 cf4e be3e a729 b03f
00000140: dd34 023f 16ed 4e3f c830 0040 e16f 0640
00000150: f13c d43e fa0c 9a3f 2aed 573f 995b db3f
00000160: b5df 0640 dfba 403f 8b93 3e3f dbec 743f
00000170: 54e1 0a40 15bd 0c40 e5e5 193f 1d40 8c3f
00000180: 5081 a73f 76fe 8b3e 88e7 873f da3b 313f
00000190: 340a 0c3f f7b9 033f 86c8 883f 6520 733f
000001a0: 580e 893f af46 913f c544 863f dd7a 853f
000001b0: 5398 803f 6ea0 893f f7e3 863f 2c1f 673f
000001c0: de68 873f e80d 803f 563e 803f fa60 8a3f
000001d0: 2cdf 803f 4e39 803f 72c3 7a3f ec5c 5e3f
000001e0: c40e 723f ebf3 833f 7887 6c3f 3214 783f
000001f0: cf0c 993f dc0c 863f 0722 483f 6ba5 563f
00000200: 32d7 563f d78a 903f bf8f 893f 4b94 843f
00000210: d00d 893f 07bd 5d3f b840 6a3f bac7 8d3f
00000220: c864 7e3f 9cd1 813f d290 7f3f 9a66 793f
00000230: 4ebd 8d3f 04d9 8f3f ad87 5e3f 2525 843f
00000240: e028 623f 3a17 803f 5751 7f3f 6e70 853f
00000250: 7d72 803f c2f4 763f 4688 6c3f d080 8e3f
00000260: 5512 613f 23a4 933f ca84 a03f 4af4 513f
00000270: eea0 323f 7ce3 973f 7880 703f eeca a23f
00000280: 6a18 5d3f 877a 873f 4e11 a63f cf6e 563f
00000290: 74b4 543f 7ba8 aa3f c0a2 623f 9880 773f
000002a0: bcea 383f 587a a83f 849a b93f 98f9 673f
000002b0: 0029 6c3f 38ca 8f3f 27c8 ad3f 7853 4e3f
000002c0: 8219 873f c4c7 d93f 012f b23f 0b0a 7b3f
000002d0: 7d99 563f 671d 893f 49af 8a3f 3a1a 673f
000002e0: 426f a13f a37b 963f 4eb0 653f 3c9e aa3f
000002f0: fb58 8e3f 6eab 833f a20c 923f b447 8c3f
00000300: e24b 753f 1c8b 8c3f 640f 843f ae96 963f
00000310: a892 6b3f 7757 923f 039d 3e3f 4d30 7b3f
00000320: 30ab 913f 178b 9a3f 16a8 513f 37d3 983f

bias f4 [4, 1, 51]
-0.06223848 -0.28044054 -0.3333007 -0.43965492 -0.28509244 -0.11832362 -0.37626302 0.44288313
0.17448175 -0.32102323 -0.25508782 -0.02983887 -0.32134202 -0.10991065 -0.26796928 -0.20883131
-0.10393736 -0.32773897 -0.13386486 -0.30924645 -0.31831512 -0.23345579 -0.107955515 0.00010942423
0.0860609 0.25265825 -0.29194358 -0.3230598 -0.14339007 0.027017597 -0.0318822 0.0922219
-0.004329799 -0.04457288 -0.23697473 -0.26041073 -0.2958406 -0.18685833 -0.14754887 -0.06926018
-0.06905875 -0.023013823 0.0670491 -0.15992786 -0.2628023 -0.3668175 -0.40201244 -0.396681
-0.08578393 -0.28369826 0.168466 0.30818233 0.0442949 -0.11989146 0.08227926 -0.2664999
-0.3340978 -0.0064830976 0.064645134 0.31641325 -0.044434745 -0.36136377 -0.26183364 0.08922064
-0.04736269 -0.46165857 -0.55148613 0.01818016 -0.17703816 -0.30911472 -0.6155068 0.36607432
0.10676868 0.123589896 -0.042836614 0.17122892 0.251787 0.80318195 0.08501281 -0.18197738
0.001260223 0.3782659 0.37465158 0.31501377 0.08645566 0.009346421 -0.15385534 -0.31848636
-0.12935239 -0.44872805 0.4073191 0.20400096 0.3638351 0.2755582 -0.44247282 -0.2403246
-0.005380985 0.13065106 -0.29018292 0.009956061 -0.050819594 -0.37428468 0.16539867 -0.20538217
-0.031428646 0.14961694 -0.044483732 0.03371691 -0.09234258 0.07409647 0.12095625 -0.20714279
-0.015208954 -0.08569125 -0.13727103 0.05107854 -0.15292604 -0.110280454 -0.0248247 -0.10447305
0.02622933 0.046165083 -0.094081394 -0.05927579 0.084370606 0.0016026257 0.18178202 0.10375765
0.033783656 0.17159939 -0.072038315 0.10515999 0.03920637 -0.07833973 -0.10031644 0.17511362
-0.06879042 -0.10414278 -0.12504552 -0.0812683 0.1646042 0.036486927 -0.04894491 0.03164119
-0.051133893 0.0737087 -0.13432099 -0.013219504 0.05305165 -0.045282535 -0.21956573 0.14964476
0.055666164 -0.047618844 0.37595707 0.020132462 -0.12047671 0.026676178 0.018954761 0.17169984
-0.062071916 -0.12300976 0.0913158 0.03557215 0.12635823 0.2977781 -0.039577756 0.17494713
0.014565077 0.15281731 0.24177283 -0.0021900397 -0.073713854 0.124156356 0.13485554 -0.14665228
0.035446063 -0.14692649 -0.24216335 0.18699586 -0.11492001 0.07449475 -0.04676877 0.037278417
0.1581686 0.13834761 -0.13093819 0.15528278 0.20384723 0.22668901 0.14991023 -0.177065
-0.04094157 0.2782337 0.06596433 0.15770142 -0.15042043 0.20190346 -0.10406317 -0.06482152
0.05066472 0.34088844 0.0063121635 -0.06584205
00000000: c7ed 7ebd e795 8fbe 64a6 aabe 731a e1be
00000010: a3f7 91be a753 f2bd 8ca5 c0be 94c1 e23e
00000020: 58ab 323e 285d a4be df9a 82be a570 f4bc
00000030: f186 a4be d618 e1bd 4533 89be e0d7 55be
00000040: 1cdd d4bd 67cd a7be df13 09be 8d55 9ebe
00000050: 33fa a2be 090f 6fbe c817 ddbd b07a e538
00000060: b240 b03d 6c5c 813e a179 95be 1868 a5be
00000070: d9d4 12be 0254 dd3c e996 02bd d6de bc3d
00000080: fde0 8dbb 0d92 36bd 81a9 72be 8e54 85be
00000090: 6b78 97be ca57 3fbe 0d17 17be 48d8 8dbd
000000a0: ad6e 8dbd 7c87 bcbc 0a51 893d 21c4 23be
000000b0: 068e 86be 81cf bbbe 93d4 cdbe c619 cbbe
000000c0: 7caf afbd e640 91be 5a82 2c3e 13ca 9d3e
000000d0: 926e 353d a789 f5bd 0782 a83d ad72 88be
000000e0: de0e abbe 2a70 d4bb ab64 843d eb00 a23e
000000f0: 3501 36bd ac04 b9be 0f0f 86be 50b9 b63d
00000100: 61ff 41bd 835e ecbe 322e 0dbf 8fee 943c
00000110: 7e49 35be 4944 9ebe db91 1dbf 186e bb3e
00000120: 8aa9 da3d b31c fd3d 7275 2fbd a256 2f3e
00000130: 3aea 803e 559d 4d3f 321b ae3d 4758 3abe
00000140: 112e a53a 11ac c13e 55d2 bf3e 7c49 a13e
00000150: aa0f b13d bb21 193c 418c 1dbe a510 a3be
00000160: f474 04be afbf e5be 218c d03e a1e5 503e
00000170: 9848 ba3e f715 8d3e cc8b e2be a717 76be
00000180: f952 b0bb 64c9 053e db92 94be bf1e 233c
00000190: 3528 50bd 3ea2 bfbe 455e 293e b44f 52be
000001a0: 53bb 00bd 2f35 193e 9334 36bd be1a 0a3d
000001b0: 1b1e bdbd e4bf 973d e9b7 f73d 3d1d 54be
000001c0: fa2e 79bc e57e afbd c790 0cbe bb37 513d
000001d0: a598 1cbe b8da e1bd 2b5d cbbc f7f5 d5bd
000001e0: e4de d63c 9917 3d3d bfad c0bd 2ccb 72bd
000001f0: 7fca ac3d 320f d23a 1125 3a3e e47e d43d
00000200: bb60 0a3d c0b7 2f3e d388 93bd 1f5e d73d
00000210: dc96 203d 9570 a0bd b572 cdbd fc50 333e
00000220: fee1 8cbd cf48 d5bd ef0b 00be ff6f a6bd
00000230: 018e 283e 5173 153d 757a 48bd 319a 013d
00000240: c671 51bd 96f4 963d 718b 09be 9e96 58bc
00000250: b04c 593d 2e7a 39bd d7d5 60be 7a3c 193e
00000260: 3402 643d fa0b 43bd 727d c03e d5ec a43c
00000270: 7ebc f6bd 0088 da3c 0447 9b3c 15d2 2f3e
00000280: 1f3f 7ebd 8bec fbbd c703 bb3d 1ab4 113d
00000290: 0d64 013e 5f76 983e 491c 22bd 5725 333e
000002a0: 5ca2 6e3c 247c 1c3e 4c93 773e c586 0fbb
000002b0: 4af7 96bd b045 fe3d 9217 0a3e 042c 16be
000002c0: e42f 113d e673 16be abf9 77be d87b 3f3e
000002d0: 2f5b ebbd b490 983d 9c90 3fbd 41b1 183d
000002e0: f3f6 213e ffaa 0d3e a914 06be 7302 1f3e
000002f0: 54bd 503e 2a21 683e 1182 193e 8750 35be
00000300: 59b2 27bd a674 8e3e 4f18 873d 7b7c 213e
00000310: d007 1abe c8bf 4e3e 121f d5bd 25c1 84bd
00000320: cf85 4f3d ee88 ae3e 44d6 ce3b 32d8 86bd

weight f4 [1, 4, 1, 1]
-1.75123 -0.27469587 0.31280544 -0.19715239
00000000: 4e28 e0bf f0a4 8cbe 0928 a03e 51e2 49be

weight f4 [1, 1, 51]
1.0504062 1.3781799 0.79140574 0.8330004 0.89382803 0.9011971 1.4866142 0.84265333
1.1802388 1.6251713 0.9181169 1.2966876 1.5894476 0.9425824 1.2973169 0.8674731
1.4835031 1.9073988 1.0523964 0.9154656 1.8993771 1.2205848 1.0932178 1.0447092
1.9645889 1.1842031 2.7032053 1.1307678 1.3091255 0.78676635 1.5042884 2.5370274
2.1223972 0.94421774 1.4533466 1.4104091 1.3904105 1.5603614 0.94053763 1.1668364
1.7905806 1.4474826 2.3454187 1.0127866 1.408352 0.8912629 0.5539338 1.0116677
1.5878036 0.9492399 1.6893117
00000000: b673 863f 3368 b03f 9199 4a3f 843f 553f
00000010: ead1 643f dab4 663f 6049 be3f 21b8 573f
00000020: 1112 973f 9d05 d03f b609 6b3f dcf9 a53f
00000030: 0573 cb3f 154d 713f 7b0e a63f b812 5e3f
00000040: 6ee3 bd3f a525 f43f edb4 863f f45b 6a3f
00000050: ca1e f33f 1f3c 9c3f 90ee 8b3f 08b9 853f
00000060: a677 fb3f f893 973f 5101 2d40 00bd 903f
00000070: 6d91 a73f 8569 493f 868c c03f a85e 2240
00000080: 5bd5 0740 41b8 713f 4307 ba3f 4988 b43f
00000090: f9f8 b13f ecb9 c73f 13c7 703f e55a 953f
000000a0: bf31 e53f 1c47 b93f 571b 1640 fea2 813f
000000b0: e144 b43f ce29 643f 9bce 0d3f 547e 813f
000000c0: 263d cb3f 6301 733f 5e3b d83f

bias f4 [1, 1, 51]
0.17467912 -0.34985176 -0.19430599 0.16601995 -0.06659457 0.36519012 -0.3208657 0.01537477
0.23719497 0.100448936 -0.007435267 -0.12622622 -0.16206522 0.06639059 -0.02073313 -0.15212582
-0.09035726 0.007461581 0.2621488 0.32437938 -0.24684836 -0.66867405 -0.0281434 0.052749958
-0.24095058 0.5325484 0.00591073 0.26502615 -0.17003289 0.43379283 -0.033212245 0.33431184
-0.04165519 0.32213402 0.17078781 -0.050570864 -0.19864893 -0.18789819 0.38682055 0.23766728
0.21539086 -0.20260079 0.16950758 0.29402706 -0.057923127 -0.120094724 0.10724104 0.08877358
0.03748056 0.14952688 -0.47338808
00000000: 15df 323e c51f b3be 26f8 46be 2201 2a3e
00000010: bc62 88bd 33fa ba3e 8248 a4be 76e6 7b3c
00000020: 3de3 723e 2cb8 cd3d 8aa3 f3bb 7241 01be
00000030: 6df4 25be caf7 873d 86d8 a9bc dfc6 1bbe
00000040: 3a0d b9bd 4780 f43b 5e38 863e 0e15 a63e
00000050: d1c5 7cbe 392e 2bbf fd8c e6bc 5710 583d
00000060: c0bb 76be 1855 083f ccae c13b 82b1 873e
00000070: 1a1d 2ebe 181a de3e 9009 08bd ec2a ab3e
00000080: a29e 2abd c0ee a43e 00e3 2e3e 6523 4fbd
00000090: a06a 4bbe 6268 40be 580d c63e 0d5f 733e
000000a0: 6c8f 5c3e 9576 4fbe 6593 2d3e b78a 963e
000000b0: cd40 6dbd 39f4 f5bd 31a1 db3d ecce b53d
000000c0: 3785 193d 931d 193e ec5f f2be

weight f4 [32, 51]
0.037922394 0.5678734 -0.06374279 0.07541882 -0.3393394 0.28698117 0.99825823 -0.33059007
-0.4108863 0.3141501 -0.13524099 -0.2797013 -0.79979473 -0.45273617 0.3058884 0.15307355
0.13382982 0.23338519 0.07330982 -0.19303213 0.32535303 0.004656008 -0.17580077 0.31578165
-0.07313312 0.10563908 0.3738782 0.07915756 0.59779304 -0.056890864 0.037933823 -0.7939793
-0.04338913 -0.108626515 -0.12737398 0.025174031 -0.18854006 -0.1535749 0.16407588 0.14068218
0.38783413 0.030150495 -0.6013369 -0.1748992 0.26518452 0.2082582 0.041504838 -0.11832569
0.1578795 0.07395868 -0.00741307 0.21766703 0.22730878 -0.35603017 -0.20461889 -0.030954149
0.003968223 -0.18976392 -0.093045495 -0.17286775 0.23243327 0.14157335 0.23439796 0.014138046
0.11043503 0.12371063 0.055276003 0.12839276 -0.024480987 0.07215921 -0.18187697 -0.14486061
-0.086577326 0.09175644 -0.34580177 0.26888704 0.15712471 0.31446698 -0.24910285 -0.23085801
0.12549968 0.22421673 0.30358562 0.013842239 0.07282225 -0.39405996 0.50547725 -0.093260445
0.27652135 -0.16963094 -0.32054502 -0.14820293 -0.57559144 0.36111614 -0.27597287 -0.118388616
-0.15249309 0.046143144 -0.19123662 -0.28538 0.3072162 0.08309573 -0.20674664 -0.8199754
0.118794434 -0.06285191 -0.2273102 0.112036735 0.66926795 0.34654298 -0.111108474 0.0027764237
-0.3631304 0.10188436 -0.30888796 -0.053488337 0.22758417 0.18954156 0.31751207 -0.5350108
-0.18671261 0.1505664 0.46737406 0.8258926 -0.12818335 0.0898645 -0.70354074 -0.38876688
0.48923033 -0.18046387 -0.48618764 0.053585272 -0.65844715 -0.2181037 -0.8287929 -0.21594591
-0.12255121 -0.2605959 -0.46215662 -1.2326174 0.24792829 0.029128887 0.8103385 -0.30437595
-0.119957365 0.044139083 -0.030137239 -0.19803706 0.12989317 -0.116085395 0.09022512 -0.04883497
-0.19605552 -0.23763677 -0.20858902 0.046489257 0.016333008 0.30047998 0.15814762 -0.43115613
-0.18250781 -0.12343188 0.37035528 -0.054686524 -0.09544292 0.6610061 -0.06088408 -0.03654583
-0.5802387 0.40299913 0.201439 -0.29574254 -0.015470739 0.91014695 -0.30786666 0.09941477
-0.25708395 -0.48236653 -0.026335105 0.8665775 -0.31653044 -0.8463112 0.12742564 -0.19157413
-0.7129687 -1.4866042 0.34410858 0.11313313 0.13646108 -0.21789578 0.03690162 -0.09312187
-0.3345405 0.31507137 -0.012022549 0.21260677 -0.10728573 -0.5319365 0.03635623 0.11986125
0.0497316 0.6635844 0.09102022 0.4005424 -0.00140404 0.11634417 -0.19114135 -0.109355286
0.15017356 0.2310067 -0.022592917 -0.055962402 -0.27831715 0.3301352 6.8768684e-05 -0.551694
0.35626152 0.08139632 -0.03724648 -0.082915425 0.44780388 0.45920685 -0.11532778 0.15174504
0.7775705 -0.02995194 -0.13692234 0.09140087 -1.3453814 0.6207618 0.16975643 0.11814542
-0.7125927 0.21467137 -0.50457126 -0.49462402 -0.7439322 -0.1355849 0.6000815 -0.57736176
-0.027769294 -0.60156614 -0.04034006 -0.06851638 -0.31295556 0.1318666 -0.0308931 -0.083511196
-0.42520794 -0.17531778 0.014728191 0.15187214 0.6017412 -0.03305043 0.13947184 0.2019079
00000000: 8354 1b3d 2760 113f 948b 82bd 2f75 9a3d
00000010: e5bd adbe 32ef 923e da8d 7f3f 1a43 a9be
00000020: b05f d2be 48d8 a03e 9d7c 0abe 0235 8fbe
00000030: 59bf 4cbf 09cd e7be 689d 9c3e 50bf 1c3e
00000040: af0a 093e 87fc 6e3e 7523 963d 37aa 45be
00000050: ac94 a63e 6d91 983b 1e05 34be 22ae a13e
00000060: d1c6 95bd 4d59 d83d f76c bf3e 5c1d a23d
00000070: f708 193f 6506 69bd 7f60 1b3d 3a42 4bbf
00000080: cdb8 31bd 9477 debd 536e 02be c539 ce3c
00000090: a510 41be bd42 1dbe 8203 283e fd0e 103e
000000a0: 3292 c63e 2cfe f63c 37f1 19bf c718 33be
000000b0: 44c6 873e a341 553e fa00 2a3d bd54 f2bd
000000c0: 2aab 213e a677 973d 57e9 f2bb 1be4 5e3e
000000d0: a2c3 683e 9649 b6be 9d87 51be 8e93 fdbc
000000e0: de07 823b 7951 42be a38e bebd 3e04 31be
000000f0: fd02 6e3e 9bf8 103e 0506 703e 43a3 673c
00000100: c32b e23d 005c fd3d 1769 623d 6479 033e
00000110: 5a8c c8bc 35c8 933d f53d 3abe 5756 14be
00000120: 744f b1bd cdea bb3d ee0c b1be 90ab 893e
00000130: 4de5 203e d101 a13e d114 7fbe 0b66 6cbe
00000140: fd82 003e 1299 653e 936f 9b3e 8fca 623c
00000150: d523 953d 3ac2 c9be f566 013f 55ff bebd
00000160: 3594 8d3e bcb3 2dbe 7a1e a4be 82c2 17be
00000170: f659 13bf 37e4 b83e 514c 8dbe bb75 f2bd
00000180: 2627 1cbe 9800 3d3d 88d3 43be 541d 92be
00000190: 714b 9d3e 182e aa3d 64b5 53be e8e9 51bf
000001a0: 7f4a f33d 81b8 80bd 01c4 68be 8473 e53d
000001b0: 2555 2b3f 156e b13e d78c e3bd a9f4 353b
000001c0: 3aec b9be bfa8 d03d 9026 9ebe 9616 5bbd
000001d0: d30b 693e 2f17 423e f190 a23e 78f6 08bf
000001e0: 9731 3fbe 142e 1a3e a74b ef3e b36d 533f
000001f0: 7f42 03be e10a b83d 3f1b 34bf 740c c7be
00000200: 667c fa3e 85cb 38be 96ed f8be 3b7c 5b3d
00000210: fe8f 28bf 9456 5fbe c62b 54bf ed20 5dbe
00000220: 21fc fabd d36c 85be cb9f ecbe 68c6 9dbf
00000230: eae0 7d3e b49f ee3c 5872 4f3f 2ad7 9bbe
00000240: 35ac f5bd 2fcb 343d 5fe2 f6bc 3aca 4abe
00000250: b702 053e 2ebe edbd f3c7 b83d 2d07 48bd
00000260: c7c2 48be 0e57 73be 5c98 55be 856b 3e3d
00000270: cdcc 853c 83d8 993e 73f1 213e 7fc0 dcbe
00000280: 54e3 3abe dac9 fcbd 359f bd3e fafe 5fbd
00000290: 9477 c3bd b237 293f 9661 79bd 15b1 15bd
000002a0: 868a 14bf e755 ce3e 0646 4e3e 916b 97be
000002b0: fc78 7dbc 64ff 683f b3a0 9dbe f999 cb3d
000002c0: 82a0 83be bff8 f6be b8bc d7bc 06d8 5d3f
000002d0: 4710 a2be daa7 58bf de7b 023e 022c 44be
000002e0: 1e85 36bf 0c49 bebf 002f b03e 58b2 e73d
000002f0: 74bc 0b3e 1220 5fbe 2726 173d aeb6 bebd
00000300: e448 abbe 0951 a13e 3afa 44bc 97b5 593e
00000310: 9fb8 dbbd fe2c 08bf 45ea 143d d179 f53d
00000320: 5db3 4b3d abe0 293f cf68 ba3d e513 cd3e
00000330: c407 b8ba da45 ee3d 8fba 43be aaf5 dfbd
00000340: 19c7 193e 058d 6c3e c814 b9bc d538 65bd
00000350: 967f 8ebe 7b07 a93e e837 9038 d13b 0dbf
00000360: e967 b63e 1db3 a63d c48f 18bd 90cf a9bd
00000370: 8d46 e53e 291d eb3e f930 ecbd 0d63 1b3e
00000380: dc0e 473f c55d f5bc 5f35 0cbe 6130 bb3d
00000390: 7535 acbf 3fea 1e3f a1d4 2d3e 3af6 f13d
000003a0: 7a6c 36bf d0d2 5b3e 952b 01bf 5c3f fdbe
000003b0: 5772 3ebf c5d6 0abe f19e 193f fbcd 13bf
000003c0: 6e7c e3bc 3d00 1abf 9e3b 25bd 5152 8cbd
000003d0: b63b a0be 0a08 073e 8713 fdbc eb07 abbd
000003e0: dbb4 d9be 8186 33be 834e 713c 5f84 1b3e
000003f0: b60b 1a3f e35f 07bd b5d1 0e3e f2c0 4e3e

bias f4 [32]
-0.13286902 -0.0138033535 -0.07277394 -0.061970185 -0.072086684 0.067292854 -0.026203185 -0.15807183
0.026047895 0.109311625 -0.09706493 -0.0468996 0.08985656 0.008431834 0.035269484 -0.011936272
0.071959235 0.023076728 0.087413065 0.14413033 -0.035598688 -0.119721204 -0.02513808 -0.09077171
0.10326253 0.17948532 -0.091038495 0.112148486 -0.058081176 0.101030074 -0.19429833 -0.080487646
00000000: d10e 08be 7627 62bc 810a 95bd 73d4 7dbd
00000010: 2fa2 93bd d6d0 893d 10a8 d6bc 95dd 21be
00000020: 6562 d53c c6de df3d fac9 c6bd cc19 40bd
00000030: b706 b83d ad25 0a3c bc76 103d 5a90 43bc
00000040: 5d5f 933d 680b bd3c 9f05 b33d e796 133e
00000050: eecf 11bd 6430 f5bd 60ee cdbc 85e6 b9bd
00000060: 4e7b d33d 00cb 373e 6472 babd 1bae e53d
00000070: 87e6 6dbd dbe8 ce3d 24f6 46be b5d6 a4bd

weight f4 [32]
1.3153892 1.7516675 1.7544692 1.4835818 1.0749197 0.7843641 0.8288187 1.4255496
1.2515196 1.7928952 1.1180689 0.92936945 1.7387557 0.917086 1.1063248 0.9118702
1.3470193 0.9077487 0.71765184 1.2731647 1.0553097 1.4468205 1.1683755 0.8446387
1.5497686 0.9192056 1.2900585 1.332997 0.99487185 0.9827027 2.483396 0.954103
00000000: ac5e a83f a436 e03f 7292 e03f 02e6 bd3f
00000010: f896 893f 16cc 483f 762d 543f 6978 b63f
00000020: cb31 a03f 977d e53f e21c 8f3f 28eb 6d3f
00000030: 8c8f de3f 26c6 6a3f 0d9c 8d3f 5370 693f
00000040: 216b ac3f 3862 683f 08b8 373f 10f7 a23f
00000050: 6314 873f 6a31 b93f 548d 953f 3e3a 583f
00000060: d15e c63f 0f51 6b3f a320 a53f a59f aa3f
00000070: ecaf 7e3f 6792 7b3f f6ef 1e40 1840 743f

bias f4 [32]
0.020352269 -0.13551235 -0.19218795 -0.2627254 -0.61998653 -0.06996978 -0.08048042 0.0012623882
-0.030365447 -0.3465332 -0.11547991 -0.06716358 -0.29926372 -0.086647354 -0.12314375 -0.012096032
-0.0066380897 -0.14828588 0.0667872 -0.106907144 -0.24931894 -0.25072673 -0.04076466 -0.064666465
-0.11377538 0.08670721 -0.036337253 -0.011584836 -0.02671076 -0.06901976 -0.22505778 0.14415428
00000000: cdb9 a63c c0c3 0abe ebcc 44be f283 86be
00000010: 70b7 1ebf 514c 8fbd ebd2 a4bd b876 a53a
00000020: f5c0 f8bc cd6c b1be bb80 ecbd 0f8d 89bd
00000030: 1839 99be 2b74 b1bd ca32 fcbd 6f2e 46bc
00000040: 5584 d9bb 41d8 17be bac7 883d 22f2 dabd
00000050: 774d 7fbe 415f 80be d8f8 26bd da6f 84bd
00000060: 1103 e9bd 8d93 b13d 5fd6 14bd 53ce 3dbc
00000070: 86d0 dabc 3b5a 8dbd 8c75 66be 2e9d 133e

weight f4 [32, 32]
0.29491216 0.8329744 0.08197476 -0.7307879 0.52619904 0.07525325 -0.09721457 0.32616174
0.1408758 -0.1336555 -0.11290286 0.034593914 0.71269053 -0.13762346 -0.15852454 -0.02026212
-0.11155714 0.06996095 0.05308804 0.013445868 -0.084163204 -0.06399068 0.124514095 -0.092633665
0.039870042 -0.35817692 0.15866296 0.14581268 -0.19325055 0.16143093 -0.34602228 -0.18571892
0.26532716 0.26799342 0.42542335 0.11109867 0.04702051 -0.07855191 -0.1204226 -0.029684668
-0.019862514 0.11957286 -0.023156615 -0.01658759 0.3536103 -0.044966836 -0.085443445 0.02774964
0.008974583 -0.31518236 0.15017882 0.15382792 0.1192327 -0.61545855 -0.06316842 0.07734937
-0.2813604 0.14914556 -0.3349767 0.23650025 -0.58983356 0.17736605 -0.37291875 -0.045360968
-0.43742144 -0.718865 -1.0523734 1.0108831 -1.3530755 0.17128627 0.16064228 -0.49152184
-0.4563094 0.5620668 0.35960412 -0.07057463 -1.3925894 -0.08366205 0.16098031 -0.006914914
0.27145818 0.14135122 -0.18417285 0.28165638 0.7748329 -0.95263654 0.33112305 -0.20241654
-0.14736079 -0.14620817 0.62179685 -0.38943925 -0.03016374 0.2984582 1.0009191 -0.025451252
0.003273166 0.13224211 0.3832379 -0.13447092 0.4288919 -0.028653787 0.22802381 0.11214534
0.15750907 0.25611168 -0.0045099445 -0.025627693 0.1524121 0.11576609 -0.1662303 -0.04788305
-0.15521003 0.13840841 -0.097473234 -0.005090541 -0.17074217 0.10216128 -0.05271514 0.31406456
-0.11620816 -0.26844868 -0.101562396 0.10262173 0.10032002 -0.17855383 -0.07720255 0.22998945
0.19884408 0.59436077 -0.29380044 -0.33777946 0.24478875 -0.23328535 -0.21828583 0.27350792
-0.36911902 -0.62409025 0.0076042726 0.27692786 0.4153261 0.23333223 -0.23453489 -0.0047579897
-0.061132185 -0.1306551 -0.03073303 -0.061200246 -0.2869868 0.7917998 0.031499784 -0.4247344
0.1809529 -0.22700454 -0.5157002 -0.020364335 -0.28185427 0.20743224 -0.3007164 -0.024912804
0.13353173 0.13513577 -0.124805726 -0.32566887 0.2460456 0.11104707 -0.14155023 0.09220716
-0.05461104 -0.31679288 0.04026259 -0.1321953 0.38068053 -0.015538151 0.17226051 0.1612038
-0.17027344 -0.008377218 -0.02287771 0.05774444 0.114895314 0.33216736 -0.17823786 0.058927365
-0.083862014 0.030860689 -0.14672032 0.024812082 0.05649499 0.018157337 -0.31339937 -0.09231192
0.049264852 0.13989888 0.075393975 -0.16565675 -0.017366996 -0.16103666 -0.01897172 0.049961835
0.14149527 0.48871538 -0.045527063 0.10539085 0.31454477 0.065324344 -0.11240921 -0.11331116
-0.030162662 -0.04593731 0.17097364 0.12111307 -0.08509561 0.005710117 0.1533532 0.1365302
-0.15709807 -0.04554874 -0.15193781 0.06920187 0.18061882 -0.15085368 0.14670628 -0.027338114
0.18765017 0.6240932 -0.021113453 -0.94576645 -0.33223447 0.18931714 0.059875987 0.21844561
0.04068275 -0.7625742 -0.3988911 -0.106253885 0.18734938 -0.25279197 -0.13014533 -0.03175646
-0.039856814 -0.13558453 -0.043615714 -0.6611999 -0.056748252 0.29681093 0.17687702 -0.21386869
0.031147806 -0.2287612 -0.17009039 0.22002643 -0.08953266 -0.013856568 -0.38956615 0.21065016
00000000: bafe 963e cf3d 553f 62e2 a73d ea14 3bbf
00000010: fbb4 063f 601e 9a3d 6f18 c7bd acfe a63e
00000020: bf41 103e fddc 08be 9d39 e7bd 59b2 0d3d
00000030: e372 363f 2aed 0cbe 4254 22be bffc a5bc
00000040: 1278 e4bd b047 8f3d d872 593d 0f4c 5c3c
00000050: c25d acbd 8c0d 83bd 3f01 ff3d b8b6 bdbd
00000060: c54e 233d f762 b7be 8b78 223e eb4f 153e
00000070: 79e3 45be 264e 253e d529 b1be 1a2d 3ebe
00000080: f6d8 873e 6f36 893e 17d1 d93e b387 e33d
00000090: 9498 403d d3df a0bd 20a0 f6bd 432d f3bc
000000a0: b6b6 a2bc 9ee2 f43d f1b2 bdbc b3e2 87bc
000000b0: 690c b53e 252f 38bd f9fc aebd 3753 e33c
000000c0: 210a 133c 955f a1be 7ac8 193e 1185 1d3e
000000d0: 4630 f43d b18e 1dbf 725e 81bd 5969 9e3d
000000e0: 780e 90be 9db9 183e 1182 abbe 1f2d 723e
000000f0: 55ff 16bf 729f 353e 35ef bebe 6ccc 39bd
00000100: b4f5 dfbe 8907 38bf 2cb4 86bf 9e64 813f
00000110: 9431 adbf ab65 2f3e 697f 243e c0a8 fbbe
00000120: 63a1 e9be 9ce3 0f3f 081e b83e 6e89 90bd
00000130: 5f40 b2bf 0257 abbd 06d8 243e 8196 e2bb
00000140: 91fc 8a3e 60be 103e cf97 3cbe 4435 903e
00000150: 735b 463f fddf 73bf f688 a93e 4846 4fbe
00000160: bfe5 16be 98b7 15be 142e 1f3f 9564 c7be
00000170: f319 f7bc 83cf 983e 1e1e 803f 257f d0bc
00000180: 9d82 563b 7a6a 073e c237 c43e bfb2 09be
00000190: b897 db3e 59bb eabc 137f 693e 75ac e53d
000001a0: 0f4a 213e 1221 833e 28c8 93bb 2bf1 d1bc
000001b0: eb11 1c3e c616 ed3d 4738 2abe 0421 44bd
000001c0: 61ef 1ebe efba 0d3e 0ca0 c7bd 8ece a6bb
000001d0: 09d7 2ebe ef39 d13d d5eb 57bd 12cd a03e
000001e0: 8bfe edbd 1b72 89be f2ff cfbd 572b d23d
000001f0: 9574 cd3d d1d6 36be 5f1c 9ebd 5b82 6b3e
00000200: c89d 4b3e 0728 183f 036d 96be 6ef1 acbe
00000210: e7a9 7a3e 5be2 6ebe 5286 5fbe 3b09 8c3e
00000220: 2bfd bcbe 61c4 1fbf 432d f93b 7dc9 8d3e
00000230: 9fa5 d43e a5ee 6e3e ea29 70be e9e8 9bbb
00000240: be65 7abd 73ca 05be d6c3 fbbc 1cad 7abd
00000250: efef 92be 64b3 4a3f eb05 013d ca76 d9be
00000260: b84b 393e e173 68be ee04 04bf 1bd3 a6bc
00000270: 344f 90be 1e69 543e 80f7 99be f015 ccbc
00000280: 8bbc 083e 0861 0a3e 259a ffbd 12be a6be
00000290: 61f3 7b3e a56c e33d 8bf2 10be 1cd7 bc3d
000002a0: d3af 5fbd ad32 a2be 63ea 243d 345e 07be
000002b0: 8fe8 c23e bb93 7ebc 0f65 303e 9c12 253e
000002c0: 295c 2ebe 9940 09bc 096a bbbc 6f85 6c3d
000002d0: 3c4e eb3d d711 aa3e fc83 36be d25d 713d
000002e0: d9bf abbd 8ecf fc3c da3d 16be b542 cb3c
000002f0: 4a67 673d b2be 943c e275 a0be 080e bdbd
00000300: f1c9 493d a741 0f3e 2868 9a3d eca1 29be
00000310: 3b45 8ebc cbe6 24be 956a 9bbc c8a4 4c3d
00000320: 23e4 103e e738 fa3e 967a 3abd 28d7 d73d
00000330: 030c a13e c5c8 853d cd36 e6bd ae0f e8bd
00000340: b017 f7bc c328 3cbd b713 2f3e 210a f83d
00000350: 9b46 aebd ef1b bb3b 9f08 1d3e 93ce 0b3e
00000360: 51de 20be 5191 3abd 9695 1bbe b6b9 8d3d
00000370: 24f4 383e 6379 1abe 2c3a 163e 2ef4 dfbc
00000380: 5e27 403e 92c4 1f3f 1ff6 acbc c01d 72bf
00000390: a31a aabe 5adc 413e 8640 753d 35b0 5f3e
000003a0: f5a2 263d 1038 43bf 743b ccbe a39b d9bd
000003b0: 84d8 3f3e f36d 81be d144 05be 1013 02bd
000003c0: e640 23bd acd6 0abe 64a6 32bd 6644 29bf
000003d0: db70 68bd 9af7 973e 401f 353e 6500 5bbe
000003e0: af29 ff3c 6040 6abe 2d2c 2ebe 9c4e 613e
000003f0: e65c b7bd a906 63bc 3775 c7be adb4 573e

bias f4 [32]
0.00998987 -0.04319107 -0.15839402 0.15841699 -0.00064559444 0.03350561 0.1071057 0.2198089
-0.04376356 -0.13238834 -0.07952314 -0.13313727 0.11385688 0.26022303 0.10141037 0.0071091317
-0.056500047 0.14983533 0.06462148 0.20430297 -0.13437603 0.054202665 0.04533978 -0.018398786
-0.14742793 -0.063074276 -0.0751322 -0.15625548 0.10506355 0.118587896 0.039122142 0.18984723
00000000: 8dac 233c 1fe9 30bd 0b32 22be 1038 223e
00000010: 1c3d 29ba 2e3d 093d 3c5a db3d 9615 613e
00000020: 6b41 33bd cf90 07be 07dd a2bd 2355 08be
00000030: cc2d e93d f43b 853e 3db0 cf3d b8f3 e83b
00000040: 986c 67bd 6f6e 193e 4458 843d cc34 513e
00000050: df99 09be 9d03 5e3d 35b6 393d 0db9 96bc
00000060: 59f7 16be 162d 81bd e9de 99bd 7001 20be
00000070: 8f2b d73d 36de f23d 8a3e 203d 5067 423e

weight f4 [32]
1.3036056 1.074969 1.4268235 1.0079026 1.5450481 0.64696085 0.79589236 1.229525
0.9422749 0.8203431 1.2263927 1.9278071 0.92392147 1.0767033 1.01376 1.0506561
1.3430518 2.382777 0.8773579 1.654475 1.5694159 0.96237594 0.9383932 1.5753242
1.3073889 0.8845355 1.1992549 1.0184449 0.7866566 1.4217727 1.6877879 0.9654547
00000000: 8cdc a63f 9698 893f 27a2 b63f f402 813f
00000010: 23c4 c53f 3a9f 253f 9abf 4b3f 1361 9d3f
00000020: ee38 713f 0102 523f 70fa 9c3f 62c2 f63f
00000030: 1e86 6c3f 6ad1 893f e3c2 813f e67b 863f
00000040: 1fe9 ab3f 6b7f 1840 879a 603f d6c5 d33f
00000050: 9fe2 c83f 455e 763f 893a 703f 39a4 c93f
00000060: 8558 a73f eb70 623f 2f81 993f 675c 823f
00000070: 5462 493f a6fc b53f 6f09 d83f 0a28 773f

bias f4 [32]
-0.23037742 -0.10514346 -0.0808548 0.0562396 0.020839673 -0.010474179 0.049094427 -0.4265519
-0.028486986 -0.06880717 -0.2716417 -0.050332267 -0.033307306 0.10738365 0.17276554 -0.3308635
-0.25881088 -0.030807775 0.19877008 -0.008120216 0.0643102 0.10006049 -0.0016674154 -0.10806315
-0.16911592 -0.24723747 -0.32025155 -0.09209885 0.041335575 -0.1440558 -0.10002135 0.09783756
00000000: 0fe8 6bbe 7455 d7bd 3497 a5bd 7f5b 663d
00000010: f6b7 aa3c e49b 2bbc 3d17 493d 0365 dabe
00000020: 8a5d e9bc c6ea 8cbd 9f14 8bbe 3529 4ebd
00000030: 3e6d 08bd f6eb db3d 73e9 303e f166 a9be
00000040: dc82 84be 9660 fcbc 628a 4b3e a80a 05bc
00000050: 11b5 833d 84ec cc3d 2d8d daba 3650 ddbd
00000060: b92c 2dbe d22b 7dbe 03f8 a3be 529e bcbd
00000070: 7e4f 293d 5d83 13be fed7 ccbd 0f5f c83d

weight f4 [51, 32]
0.040779673 -0.09319692 -0.076291345 0.04073553 -0.07315479 0.020311987 0.1660566 0.041684717
-0.15736027 0.10472551 0.043956112 -0.09630156 0.038706005 0.06046652 -0.009401129 -0.23322211
-0.16041073 0.13438317 -0.09612816 0.17691296 0.008758307 0.022533339 -0.12743464 -0.059046626
-0.19563128 0.011253328 -0.012548508 -0.06886482 0.0056455485 0.07597346 0.11971356 -0.026299734
0.05235143 -0.056215364 -0.077375956 0.04228872 -0.08709407 -0.051255193 0.08134588 0.0061363024
-0.14425725 0.14642635 0.054109816 -0.095354125 -0.039820127 0.09000156 -0.058616523 -0.36178172
-0.20465186 0.13634945 0.05571615 0.16753165 0.022019058 -0.011468778 -0.144836 -0.06421687
-0.22034106 -0.0145803075 -0.03393866 -0.057682887 -0.036687654 0.07425741 0.11798198 -0.0014961067
0.04010529 -0.0323325 -0.07331169 0.038741544 -0.0830675 -0.018318916 0.08713872 0.04853918
-0.063833736 0.06383405 0.042339887 -0.09226702 0.0048493445 0.07192278 -0.09002798 -0.33939755
-0.17743383 0.13247968 0.04788425 0.14685169 0.025388988 0.063088015 -0.12725449 -0.069094144
-0.30030677 -0.028370138 -0.021715162 -0.09318182 -0.05199944 0.06454423 0.103507206 -0.0049660513
0.0010423309 -0.016985694 -0.06516195 0.0530767 -0.05674517 -0.0090224575 0.02190021 0.028880194
-0.019835258 0.0108983535 0.045744717 -0.09008109 0.016729958 0.04802495 -0.099088654 -0.32205245
-0.17084968 0.11450705 0.119231 0.12148956 0.019170897 0.061965633 -0.09154196 -0.07994349
-0.26420662 -0.07662578 0.0085256025 -0.10424232 -0.08583753 0.05809126 0.09465224 -0.0039624744
-0.038791046 0.014885026 -0.069593236 0.040669132 -0.020071903 -0.023345174 0.027754653 -0.021467606
0.061114695 -0.09328232 0.047716513 -0.09502234 0.088623144 0.037401553 -0.08999956 -0.18622594
-0.10631033 0.116380334 0.11339334 0.124901995 0.022173364 0.09759549 -0.03083495 -0.08578295
-0.08683326 -0.08718742 0.043098543 -0.15031558 -0.07558615 0.05213758 0.107200384 -0.041518953
-0.06432522 0.021477513 -0.067905694 0.043168932 0.010993406 0.0032224369 -0.0022176371 -0.05498368
0.08708139 -0.13792793 0.048410032 -0.09335347 0.11792167 0.00905273 -0.050731234 -0.12290187
-0.06186215 0.10993753 0.13715458 0.119484246 0.014898008 0.072628126 0.0012351885 -0.09297341
0.00948115 -0.11854297 0.061697982 -0.12608626 -0.068782516 0.051323898 0.11396028 -0.082319014
-0.10663625 0.011884949 -0.06918808 0.038336672 0.03608534 0.017057383 -0.02271758 0.0052757445
0.08644925 -0.142036 0.046942256 -0.09063417 0.10450715 -0.007636352 0.007390765 -0.100414485
0.028363248 0.107203215 0.15774377 0.124591745 0.0046314285 0.024896782 0.023117015 -0.09090689
0.16713348 -0.1500738 0.058525134 -0.085857816 -0.056208808 0.045262717 0.11917908 -0.12863989
-0.12513226 0.00027892855 -0.079090066 0.024015248 0.058678243 0.01621441 -0.024474815 0.022970716
0.0886781 -0.115451716 0.075778574 -0.09587896 0.06065731 -0.0036031378 0.0741074 -0.17752905
0.08167815 0.1082637 0.17406324 0.15654251 -0.0018879733 -0.031875473 0.029472435 -0.098318815
0.25035027 -0.17503494 0.056588277 -0.042436793 -0.04034006 0.04320642 0.124911904 -0.17517728
00000000: 9608 273d 07de bebd a33e 9cbd 4dda 263d
00000010: 2ed2 95bd 5365 a63c be0a 2a3e 98bd 2a3d
00000020: 0d23 21be 547a d63d 530b 343d c139 c5bd
00000030: 308a 1e3d beab 773d 3107 1abc c7d1 6ebe
00000040: b642 24be be9b 093e d7de c4bd ac28 353e
00000050: 017f 0f3c d697 b83c 3a7e 02be e0da 71bd
00000060: 9153 48be e15f 383c 4298 4dbc 0009 8dbd
00000070: 4bfe b83b f997 9b3d 622c f53d 8a72 d7bc
00000080: 746e 563d 1542 66bd 4977 9ebd f036 2d3d
00000090: 605e b2bd f7f0 51bd ab98 a63d 0913 c93b
000000a0: 2cb8 13be caf0 153e 41a2 5d3d 0649 c3bd
000000b0: 6e1a 23bd bd52 b83d e117 70bd 743b b9be
000000c0: 4290 51be 319f 0b3e 9e36 643d 6b8d 2b3e
000000d0: 5061 b43c 8be7 3bbc e34f 14be 2284 83bd
000000e0: 16a1 61be 3ee2 6ebc 4403 0bbd e444 6cbd
000000f0: cb45 16bd 4514 983d 89a0 f13d 0319 c4ba
00000100: 7245 243d 156f 04bd 7024 96bd 74af 1e3d
00000110: 4b1f aabd 8d11 96bc c975 b23d 05d1 463d
00000120: 43bb 82bd 6dbb 823d 976c 2d3d 7ef6 bcbd
00000130: 40e7 9e3b 404c 933d 9760 b8bd 84c5 adbe
00000140: 37b1 35be c1a8 073e 4622 443d 4a60 163e
00000150: 91fc cf3c 4a34 813d 004f 02be 3b81 8dbd
00000160: cfc1 99be 7e68 e8bc ffe3 b1bc 1cd6 bebd
00000170: 5dfd 54bd c42f 843d 96fb d33d 42ba a2bb
00000180: d29e 883a 9525 8bbc a173 85bd f466 593d
00000190: a06d 68bd eed2 13bc 1268 b33c 2896 ec3c
000001a0: 8d7d a2bc 028f 323c d05e 3b3d 6f7c b8bd
000001b0: 440d 893c cfb5 443d feee cabd 0fe4 a4be
000001c0: 38f3 2ebe ac82 ea3d 622f f43d 85cf f83d
000001d0: 490c 9d3c adcf 7d3d 5a7a bbbd 6ab9 a3bd
000001e0: 1746 87be faed 9cbd f8ae 0b3c ff7c d5bd
000001f0: 96cb afbd 1af1 6d3d 09d9 c13d a5d7 81bb
00000200: 5ce3 1ebd 53e0 733c e686 8ebd ad94 263d
00000210: d56d a4bc 613e bfbc ba5d e33c d5dc afbc
00000220: 6753 7a3d cd0a bfbd 6472 433d 139b c2bd
00000230: 0d80 b53d 5f32 193d b051 b8bd 03b2 3ebe
00000240: 3bb9 d9bd d058 ee3d c43a e83d 9ecc ff3d
00000250: eaa4 b53c 25e0 c73d 9499 fcbc f9ae afbd
00000260: a3d5 b1bd 518f b2bd 1988 303d 54ec 19be
00000270: e9cc 9abd 378e 553d e08b db3d c70f 2abd
00000280: f1bc 83bd 9cf1 af3c 2412 8bbd e8d1 303d
00000290: b01d 343c 852f 533b c755 11bb 9136 61bd
000002a0: ba57 b23d fb3c 0dbe 9949 463d 1b30 bfbd
000002b0: eb80 f13d e751 143c 8ecb 4fbd fab3 fbbd
000002c0: 2a63 7dbd ed26 e13d 4072 0c3e 28b4 f43d
000002d0: c616 743c 0ebe 943d 0ce6 a13a d868 bebd
000002e0: d356 1b3c a8c6 f2bd 06b7 7c3d c21c 01be
000002f0: d9dd 8cbd 0239 523d 0264 e93d df96 a8bd
00000300: 1b64 dabd 17b9 423c 7bb2 8dbd ea06 1d3d
00000310: 39ce 133d edbb 8b3c 381a babc 27e0 ac3b
00000320: 4e0c b13d e371 11be 8646 403d 689e b9bd
00000330: d807 d63d 5d3a fabb 3b2e f23b 1ca6 cdbd
00000340: 0b5a e83c 5c8d db3d 9587 213e f529 ff3d
00000350: 3dc3 973b 56f4 cb3c e55f bd3c 642d babd
00000360: 0a25 2b3e f2ac 19be 0db8 6f3d 39d6 afbd
00000370: 353b 66bd 6665 393d 2914 f43d 2dba 03be
00000380: ac22 00be 283d 9239 f9f9 a1bd a0bb c43c
00000390: 9958 703d 15d4 843c 687f c8bc 152d bc3c
000003a0: dd9c b53d f371 ecbd cc31 9b3d 305c c4bd
000003b0: cd73 783d 9f22 6cbb 9fc5 973d 2dca 35be
000003c0: e046 a73d 5cb9 dd3d a23d 323e ae4c 203e
000003d0: df75 f7ba db8f 02bd 2d70 f13c 605b c9bd
000003e0: e92d 803e 5c3c 33be 1cc9 673d 34d2 2dbd
000003f0: 9e3b 25bd 37f9 303d d0d1 ff3d ac61 33be

bias f4 [51]
0.09751711 0.08584972 0.057067085 0.1048719 0.029609265 0.040207185 0.062682934 0.055554163
-0.002550871 -0.06351782 -0.15371947 0.0395809 -0.03500935 0.12664275 -0.15472461 -0.55224586
-0.13579871 -0.06603887 -0.18461771 0.38725737 -0.15131134 -0.14971893 -0.03614573 -0.09248894
-0.10684808 0.07874042 0.065732054 0.046079338 -0.038501818 -0.015631499 -0.06654326 -0.034290772
-0.043097638 0.01863056 0.03527375 0.032353863 0.02116041 -0.03136272 -0.023721974 -0.02798316
-0.051843427 0.055080466 0.04864319 0.051162224 0.07422016 0.06685378 0.0603525 0.07627747
0.08142439 0.1043385 0.110748746
00000000: 0db7 c73d fad1 af3d 2dbf 693d 14c7 d63d
00000010: 218f f23c 4ab0 243d e95f 803d c38c 633d
00000020: 842c 27bb a115 82bd a368 1dbe 951f 223d
00000030: f765 0fbd a3ae 013e 2170 1ebe fc5f 0dbf
00000040: d10e 0bbe 633f 87bd 6d0c 3dbe 9946 c63e
00000050: 5cf1 1abe eb4f 19be 8c0d 14bd d76a bdbd
00000060: 2bd3 dabd a842 a13d 879e 863d b0bd 3c3d
00000070: 15b4 1dbd a10d 80bc d547 88bd 7b74 0cbd
00000080: 2687 30bd 1e9f 983c 357b 103d 7c85 043d
00000090: 9958 ad3c 3276 00bd 9654 c2bc f13c e5bc
000000a0: c659 54bd 0e9c 613d 153e 473d 7b8f 513d
000000b0: bd00 983d a2ea 883d 2f34 773d 5d37 9c3d
000000c0: d5c1 a63d 6caf d53d 3dd0 e23d

weight f4 [51]
2.9278452 2.9680965 3.0622394 3.1654384 3.0035903 2.9108407 2.7995763 2.554026
2.2218986 2.0740783 1.9416937 1.7418697 1.656473 1.2441223 -0.14261638 -0.13354795
0.23491938 -0.17358041 1.2506225 0.2455237 2.001745 2.2182176 2.3171406 2.3207557
2.264958 2.8227456 2.8985355 3.044468 3.1626096 3.4741936 3.3862555 3.4213252
3.36709 3.6539779 3.5560107 3.6215553 3.4839067 3.6503165 3.829645 3.734147
3.093993 3.4320757 3.2606487 3.2901502 3.6887074 3.6951358 3.7112436 3.7649877
3.4271193 3.3445485 3.203795
00000000: d161 3b40 4bf5 3d40 bbfb 4340 8b96 4a40
00000010: d33a 4040 374b 3a40 422c 3340 2975 2340
00000020: 9633 0e40 b3bd 0440 6b89 f83f 96f5 de3f
00000030: 4f07 d43f 663f 9f3f 070a 12be cbc0 08be
00000040: b58e 703e 10bf 31be 6614 a03f 916a 7b3e
00000050: 971c 0040 47f7 0d40 084c 1440 4387 1440
00000060: 12f5 1040 dda7 3440 9b81 3940 90d8 4240
00000070: 3268 4a40 3059 5e40 69b8 5840 fef6 5a40
00000080: 677e 5740 c6da 6940 ae95 6340 90c7 6740
00000090: 54f8 5e40 c99e 6940 e718 7540 44fc 6e40
000000a0: fb03 4640 21a7 5b40 78ae 5040 d291 5240
000000b0: c813 6c40 1b7d 6c40 0485 6d40 8ff5 7040
000000c0: ec55 5b40 150d 5640 fa0a 4d40

bias f4 [51]
-0.5158541 -0.514053 -0.5345729 -0.61480045 -0.51149756 -0.56025946 -0.63050914 -0.64917123
-0.66798353 -0.61758953 -0.6401617 -0.7345909 -0.7084961 -0.8347788 -0.40526587 -1.2254028
-0.23825242 -0.43249562 -0.79304314 -1.8112632 -0.7804092 -0.7338335 -0.7316694 -0.7023441
-0.64721406 -0.9948891 -0.93282163 -0.8791978 -0.752175 -0.73978895 -0.65259445 -0.65584385
-0.6392063 -0.6941068 -0.67683625 -0.6473792 -0.6431062 -0.60078686 -0.6589493 -0.6606229
-0.58127564 -0.71946394 -0.6818242 -0.6011008 -0.5942834 -0.5616019 -0.5096951 -0.544546
-0.468135 -0.46727157 -0.47806987
00000000: 040f 04bf fa98 03bf c5d9 08bf 9063 1dbf
00000010: 81f1 02bf 2a6d 0fbf 0c69 21bf 1630 26bf
00000020: f800 2bbf 591a 1ebf a3e1 23bf 260e 3cbf
00000030: 0060 35bf 10b4 55bf 027f cfbe 00da 9cbf
00000040: 71f8 73be 1170 ddbe e004 4bbf 79d7 e7bf
00000050: e6c8 47bf 83dc 3bbf b04e 3bbf d3cc 33bf
00000060: d2af 25bf 0db1 7ebf 66cd 6ebf 1b13 61bf
00000070: 8a8e 40bf cf62 3dbf 6e10 27bf 62e5 27bf
00000080: 06a3 23bf fcb0 31bf 2445 2dbf a5ba 25bf
00000090: 9ca2 24bf 2bcd 19bf e7b0 28bf 951e 29bf
000000a0: 7bce 14bf ca2e 38bf 088c 2ebf bee1 19bf
000000b0: f522 18bf 24c5 0fbf 617b 02bf 5e67 0bbf
000000c0: 64af efbe 383e efbe 93c5 f4be
